weights/CNN.pth (torch, 293255 bytes, 10 tensors)

conv1.weight f4 [8, 3, 3, 3]
0.2543057 0.008207604 0.008953176 0.21735416 -0.1196357 0.13686231 0.07473796 0.14680254
0.040698096 0.0192367 0.021157041 -0.076385505 0.0651396 -0.16139376 -0.14088269 -0.049041446
-0.08152468 -0.14215958 0.22845921 0.056818746 -0.12214284 -0.10551672 -0.08889146 -0.17558925
-0.07920566 -0.07560257 0.0009884043 0.26923662 -0.07232128 0.22064868 0.20595206 0.27657568
0.21136223 -0.016889121 -0.07812645 -0.008591702 0.26119858 0.017644968 0.11352514 -0.0041034897
0.22569248 -0.05976396 0.23427634 0.045557525 -0.077642396 0.10580454 -0.1269339 0.02113776
-0.051715594 -0.053099353 -0.22285026 -0.08325031 0.07985571 -0.078784555 0.30281177 0.25175935
0.08395337 -0.039325632 0.19594052 0.14390957 -0.03949602 0.19825825 0.19069082 0.21310693
-0.077441454 -0.009802102 0.024408268 0.04655627 -0.12733339 -0.10524506 0.1253965 -0.028369505
0.052854806 -0.034783058 0.0147524495 -0.008587688 0.016251327 0.046233904 -0.22499444 0.048984062
-0.18089359 -0.1789888 -0.06345979 -0.13920406 0.07284962 -0.19409999 -0.28623956 0.11015463
-0.102692686 0.0031366576 0.08149861 -0.14802696 0.01839689 0.057098277 -0.14114206 -0.121132456
0.079468794 0.02429648 -0.10937104 0.024261517 0.24501538 0.026452614 0.17909041 0.14433594
-0.065586835 -0.08563877 0.2482677 0.068503946 0.24233273 0.12872063 0.13911796 0.24477911
0.25871485 -0.06763793 0.124132134 0.20914727 0.18295783 0.15436104 -0.12961493 -0.1336919
-0.07873014 0.034546643 0.19053213 -0.07611895 0.113363594 -0.110631205 -0.23617566 -0.114312045
0.03976719 0.12871514 -0.18828055 -0.027921269 0.12865542 0.06643244 0.056022294 0.2571025
0.2583124 0.19558682 -0.0049987626 -0.024393143 0.055807523 0.11378631 0.024739603 0.21567066
0.1355046 0.040961392 0.16073602 0.1414507 0.20352764 0.21838087 0.024446512 0.28127494
0.070815966 -0.04226135 -0.20834032 -0.14615873 -0.1477579 -0.106045865 0.11906085 -0.09051523
-0.16142666 0.060663227 0.10216846 0.17171985 -0.031245843 0.034776878 -0.05929242 0.011026864
-0.20947534 -0.13049017 -0.04058351 0.14047359 0.10341891 0.13661204 0.20162463 0.21509865
0.20153552 -0.036780436 -0.16296735 0.17928435 -0.028337903 0.0087611135 -0.13267075 -0.06520461
-0.14394023 0.18476361 -0.2508977 -0.23288801 -0.048374157 -0.16375896 0.017615052 -0.12033785
-0.1606776 -0.054528724 0.0804545 -0.21023084 0.018716846 0.0595732 0.196645 -0.11898069
0.06921048 -0.14356378 0.16778456 -0.06396405 0.10629981 -0.00012165321 -0.013337188 0.046671283
0.08889092 0.15175043 0.07745857 0.106771976 -0.11993638 0.1811687 0.20949735 0.20629746
00000000: 5b34 823e 3079 063c 58b0 123c 1792 5e3e
00000010: 9003 f5bd a225 0c3e 3710 993d 6853 163e
00000020: 0cb3 263d 4996 9d3c 8851 ad3c 0170 9cbd
00000030: e967 853d 6844 25be 8d43 10be afdf 48bd
00000040: 69f6 a6bd 4892 11be 36f1 693e c6ba 683d
00000050: 0626 fabd 2619 d8bd ba0c b6bd abcd 33be
00000060: 9436 a2bd 85d5 9abd 588d 813a 62d9 893e
00000070: 2e1d 94bd baf1 613e 19e5 523e 549b 8d3e
00000080: 576f 583e 0e5b 8abc c300 a0bd 36c4 0cbc
00000090: d2bb 853e 2e8c 903c de7f e83d 9176 86bb
000000a0: ee1b 673e 0ecb 74bd 23e6 6f3e 879a 3a3d
000000b0: fa02 9fbd 0db0 d83d f6fa 01be 1829 ad3c
000000c0: bbd3 53bd b57e 59bd dc32 64be 237f aabd
000000d0: 648b a33d cc59 a1bd 250a 9b3e 9ae6 803e
000000e0: bfef ab3d ea13 21bd a2a4 483e 085d 133e
000000f0: 94c6 21bd 3604 4b3e 7444 433e b438 5a3e
00000100: a099 9ebd ff98 20bc d9f3 c73c cab1 3e3d
00000110: af63 02be b98a d7bd f167 003e 2a67 e8bc
00000120: 487e 583d ae78 0ebd 42b4 713c 60b3 0cbc
00000130: 8121 853c c35f 3d3d f164 66be 83a3 483d
00000140: 2b3c 39be d748 37be 35f7 81bd 828b 0ebe
00000150: 2e32 953d 26c2 46be fe8d 92be c098 e13d
00000160: 8b50 d2bd 6290 4d3b bee8 a63d 6194 17be
00000170: 13b5 963c e2df 693d 8b87 10be 4b14 f8bd
00000180: 89c0 a23d 6909 c73c ecfd dfbd 17c0 c63c
00000190: 50e5 7a3e 27b3 d83c 7a63 373e cdcc 133e
000001a0: 6452 86bd 6163 afbd e339 7e3e cc4b 8c3d
000001b0: 1226 783e 57cf 033e f074 0e3e 60a7 7a3e
000001c0: 4676 843e c185 8abd fd38 fe3d b42a 563e
000001d0: 4c59 3b3e d210 1e3e c7b9 04be 88e6 08be
000001e0: 453d a1bd c880 0d3d db1a 433e 41e4 9bbd
000001f0: 2c2b e83d 9d92 e2bd 08d8 71be 6f1c eabd
00000200: ece2 223d e7cd 033e 9ecc 40be 25bb e4bc
00000210: 3fbe 033e bb0d 883d a277 653d f0a2 833e
00000220: 8641 843e e947 483e a9cc a3bb 21d4 c7bc
00000230: 6e96 643d cc08 e93d b5aa ca3c c5d8 5c3e
00000240: b8c1 0a3e 22c7 273d fc97 243e 74d8 103e
00000250: 8d69 503e 3c9f 5f3e 0d44 c83c 4503 903e
00000260: f607 913d 3d1a 2dbd 2a57 55be a2aa 15be
00000270: d94d 17be 932e d9bd 2dd6 f33d 0d60 b9bd
00000280: 084d 25be 017a 783d b33d d13d 54d7 2f3e
00000290: 48f7 ffbc 3372 0e3d 9cdc 72bd 05aa 343c
000002a0: b480 56be 379f 05be e53a 26bd 4fd8 0f3e
000002b0: 4bcd d33d 07e4 0b3e b076 4e3e d242 5c3e
000002c0: 545f 4e3e 15a7 16bd eae0 26be 5196 373e
000002d0: e424 e8bc c68a 0f3c d7da 07be ff89 85bd
000002e0: 1165 13be ac32 3d3e aa75 80be 327a 6ebe
000002f0: fb23 46bd 6eb0 27be 714d 903c b173 f6bd
00000300: ab88 24be 8359 5fbd 54c5 a43d c146 57be
00000310: 1254 993c 0703 743d 4f5d 493e 26ac f3bd
00000320: 39be 8d3d 6202 13be b7cf 2b3e 95ff 82bd
00000330: b7b3 d93d 1220 ffb8 3984 5abc 632a 3f3d
00000340: 710c b63d 7764 1b3e 99a2 9e3d 44ab da3d
00000350: 34a1 f5bd 4a84 393e 7986 563e a43f 533e

conv1.bias f4 [8]
0.40842986 -0.21998271 -0.16149323 0.24003021 -0.27775532 0.11918711 0.008843614 -0.18022808
00000000: b81d d13e 2643 61be 7b5e 25be 7bca 753e
00000010: f235 8ebe 5f18 f43d cee4 103c b68d 38be

conv2.weight f4 [16, 8, 3, 3]
0.03568769 -0.13895565 -0.08408728 0.097322665 0.038064163 0.064796254 -0.0025334388 -0.0892983
0.087633505 -0.011592169 -0.054006018 -0.030120913 -0.060797367 0.063885756 0.02400437 -0.060951527
-0.0925653 -0.031222342 0.05221908 -0.028945439 -0.124827534 0.023273842 -0.13789417 -0.13639036
-0.051035777 0.09116818 0.0781695 -0.083341815 -0.013490248 0.06565296 -0.02044205 -0.07607441
0.07956199 0.06809334 0.005063001 0.018322218 0.111584276 0.078841485 -0.1234892 0.116369195
0.0160464 -0.13659203 0.089042425 -0.10760076 0.0825087 -0.050326865 0.027132032 -0.039139196
0.06006179 0.08193861 -0.12186347 0.005959648 -0.09794424 -0.021313502 -0.05710129 -0.018505562
-0.057257146 0.05953624 0.10373461 -0.01579512 -0.023720222 -0.044540584 -0.121358186 0.07051003
-0.05055207 -0.0020910746 -0.033408277 -0.08060093 0.048917353 0.04775197 -0.0013852179 -0.05773728
-0.016505651 0.02608205 -0.03570518 -0.035441272 0.008994929 -0.004856251 0.040233895 -0.025062008
-0.014665262 -0.035072736 -0.086956166 0.13383518 0.044755973 0.13606577 0.007900824 -0.026389893
-0.11730285 -0.05046683 0.08669101 -0.09402703 -0.018954627 0.088552386 0.09106113 0.06106747
-0.022616483 -0.022203086 -0.031748626 -0.035592694 0.042523652 -0.03801772 -0.05704151 0.022353962
-0.087088175 -0.017414415 0.06623484 0.04547703 0.10497808 -0.06961788 0.016995713 -0.015707158
-0.057458952 -0.05833725 0.028068382 -0.0033492842 -0.07077339 -0.065750346 -0.054758813 0.15192188
0.008558463 0.014116931 -0.012467744 -0.050079975 -0.10492399 -0.07196289 0.09752725 0.05509143
-0.005108588 -0.020266412 0.114892446 0.12768383 0.11660916 0.039629642 0.061056614 -0.013932957
-0.07787691 -0.12861387 0.0708567 -0.027439978 0.032769408 0.003718829 -0.12346357 -0.06079353
0.047327332 -0.14047979 -0.17861025 0.06058277 -0.15027179 -0.06036307 0.09799056 -0.10898636
-0.024403617 -0.046432532 -0.061281916 0.10926877 -0.13714615 -0.12995069 0.2993074 -0.12082313
-0.0701344 0.25129908 -0.09124308 -0.051351774 0.028275039 -0.1294777 -4.07935e-05 0.20763487
-0.06595192 -0.052156795 0.19957826 0.2951746 0.08183788 -0.0549979 0.36904752 0.04063886
-0.16905609 0.26687723 -0.10489997 -0.22522624 -0.12520829 -0.17372212 0.012819149 -0.15314752
0.0640827 0.08263076 -0.07197542 0.059005357 0.13449703 -0.25363287 -0.019034876 0.14285018
-0.2246869 0.12357382 0.13987753 -0.15692702 -0.025978163 0.27762407 -0.052731626 0.08882817
-0.03674644 0.036625218 -0.06373608 -0.13290073 -0.049152683 -0.034229826 -0.11331019 -0.07349971
-0.009245078 0.06049833 0.04493741 -0.07925456 0.09393035 0.0024014052 0.08111611 0.094866
-0.15974444 0.09970213 -0.1364999 -0.10880282 -0.1201391 -0.13470979 -0.34127 -0.18923572
-0.38153034 -0.28981337 0.046950903 0.10157738 0.016356645 -0.0009187673 0.13240644 0.050426845
-0.04873871 -0.055049844 -0.05535606 -0.02317677 0.11229851 -0.16367078 0.072987 0.041939523
-0.0180732 0.047544543 -0.051720686 0.008782478 -0.12761195 -0.17042124 -0.06685503 -0.20699231
0.0056328895 0.1278885 0.07033134 0.10047437 -0.18819325 0.09266736 0.1225343 -0.10123293
00000000: 412d 123d 644a 0ebe f435 acbd 1b51 c73d
00000010: 2be9 1b3d e6b3 843d 0d08 26bb 07e2 b6bd
00000020: 3279 b33d 15ed 3dbc 6a35 5dbd 22c0 f6bc
00000030: a906 79bd 89d6 823d d0a4 c43c 4fa8 79bd
00000040: e092 bdbd ffc5 ffbc ade3 553d fc1e edbc
00000050: 94a5 ffbd c9a8 be3c 2134 0dbe eaa9 0bbe
00000060: e40a 51bd 62b6 ba3d 5517 a03d 1daf aabd
00000070: 3306 5dbc 0f75 863d 1676 a7bc e6cc 9bbd
00000080: 66f1 a23d 8574 8b3d 88e7 a53b 7a18 963c
00000090: 4c86 e43d a577 a13d e8e7 fcbd f952 ee3d
000000a0: bd73 833c c8de 0bbe e05b b63d ca5d dcbd
000000b0: 52fa a83d 8b23 4ebd ff43 de3c 6c50 20bd
000000c0: 5a03 763d 6ecf a73d 8e93 f9bd 2749 c33b
000000d0: fd96 c8bd a799 aebc 0be3 69bd fa98 97bc
000000e0: 7886 6abd 46dc 733d d072 d43d c464 81bc
000000f0: e950 c2bc 3070 36bd a48a f8bd 9067 903d
00000100: b00f 4fbd 690a 09bb 1ed7 08bd 1a12 a5bd
00000110: 905d 483d 9297 433d 3390 b5ba ed7d 6cbd
00000120: dc36 87bc 06aa d53c 983f 12bd de2a 11bd
00000130: 775f 133c 3021 9fbb 4ccc 243d d74e cdbc
00000140: 9146 70bc 6ea8 0fbd 1316 b2bd 170c 093e
00000150: 0a52 373d d354 0b3e 7572 013c 9e2f d8bc
00000160: 7a3c f0bd 4fb6 4ebd 0e8b b13d 3e91 c0bd
00000170: bc46 9bbc f45a b53d 427e ba3d e221 7a3d
00000180: 3446 b9bc 3fe3 b5bc d90a 02bd a5c9 11bd
00000190: 482d 2e3d 78b8 1bbd 5ca4 69bd a81f b73c
000001a0: 495b b2bd ada8 8ebc 22a6 873d 1f46 3a3d
000001b0: bffe d63d d293 8ebd 983a 8b3c 4cac 80bc
000001c0: 145a 6bbd 0af3 6ebd aaef e53c aa7f 5bbb
000001d0: a4f1 90bd 1ea8 86bd c74a 60bd 6991 1b3e
000001e0: cc38 0c3c b34a 673c 8245 4cbc a920 4dbd
000001f0: 64e2 d6bd 4861 93bd 5ebc c73d 8da7 613d
00000200: f165 a7bb bf05 a6bc bb4c eb3d 8dbf 023e
00000210: c9d0 ee3d b152 223d 8016 7a3d 0f47 64bc
00000220: ee7d 9fbd 5bb3 03be 511d 913d cec9 e0bc
00000230: 3739 063d 99b7 733b 78da fcbd a302 79bd
00000240: 4eda 413d efd9 0fbe 9be5 36be a325 783d
00000250: d9e0 19be 443f 77bd 46af c83d 3e34 dfbd
00000260: 18ea c7bc 0a30 3ebd bf02 7bbd 4ec8 df3d
00000270: 0a70 0cbe cb11 05be d23e 993e 1e72 f7bd
00000280: a0a2 8fbd 46aa 803e a7dd babd 3d56 52bd
00000290: 0ea1 e73c cd95 04be b019 2bb8 3c9e 543e
000002a0: cd11 87bd 5da2 55bd 3e5e 4c3e 2021 973e
000002b0: 9e9a a73d 7a45 61bd ccf3 bc3e ef74 263d
000002c0: 0a1d 2dbe 22a4 883e ccd5 d6bd b5a1 66be
000002d0: 9a36 00be 36e4 31be 6807 523c b4d2 1cbe
000002e0: ca3d 833d 513a a93d d967 93bd 9aaf 713d
000002f0: 97b9 093e 2bdc 81be 07ef 9bbc 5147 123e
00000300: 5314 66be 4514 fd3d 0e3c 0f3e 7ab1 20be
00000310: 28d0 d4bc be24 8e3e 1efd 57bd 8beb b53d
00000320: 6f83 16bd 5304 163d 1088 82bd 2117 08be
00000330: 5354 49bd 9334 0cbd 2c0f e8bd 0487 96bd
00000340: ab78 17bc 19cd 773d 4a10 383d 3750 a2bd
00000350: 8e5e c03d e560 1d3b 3420 a63d 1b49 c23d
00000360: 0c94 23be a130 cc3d a1c6 0bbe 03d4 debd
00000370: 7d0b f6bd 5df1 09be f1ba aebe 02c7 41be
00000380: f257 c3be 6b62 94be 974f 403d cd07 d03d
00000390: 5ffe 853c 6ed9 70ba 8e95 073e 618c 4e3d
000003a0: 3ea2 47bd f27b 61bd 09bd 62bd 36dd bdbc
000003b0: c3fc e53d 5099 27be 357a 953d c7c8 2b3d
000003c0: 3f0e 94bc 11be 423d 12d9 53bd 62e4 0f3c
000003d0: b5ac 02be e882 2ebe 4aeb 88bd cbf5 53be
000003e0: 1a94 b83b 34f5 023e e109 903d 82c5 cd3d
000003f0: bbb5 40be 63c8 bd3d 43f3 fa3d 3653 cfbd

conv2.bias f4 [16]
0.077067375 0.05100629 -0.010463159 0.05874637 0.11195094 -0.04451609 -0.010052086 0.041273527
0.02456322 -0.16662371 -0.11794345 0.1489648 0.07071946 -0.0957889 -0.066325374 0.021331174
00000000: 80d5 9d3d f9eb 503d ab6d 2bbc 09a0 703d
00000010: 8946 e53d 8156 36bd 81b1 24bc 6e0e 293d
00000020: ce38 c93c 689f 2abe 568c f1bd 3b8a 183e
00000030: 5dd5 903d f92c c4bd 99d5 87bd b7be ae3c

conv3.weight f4 [32, 16, 3, 3]
-0.035246484 0.07296832 -0.062241774 0.023761928 -0.07666603 -0.04421227 -0.038897492 -0.0024740652
-0.002541102 -0.04190292 -0.04400329 -0.06045041 -0.063329436 -0.054814287 0.0798934 -0.051438823
-0.076661356 0.06245305 -0.019111538 -0.027263835 -0.13939796 -0.14159152 -0.07928547 -0.09989745
0.014730416 0.05509928 -0.013252787 -0.088981435 -0.038223207 -0.11864667 -0.07465335 -0.0814606
-0.094475836 0.07441828 0.046580393 0.032443635 0.09836577 0.16946119 0.11485191 -0.014466944
0.09689452 0.058171432 0.03214314 -0.051074922 0.047641087 -0.028452864 0.053127334 -0.03829532
0.05997994 -0.017384207 0.021493046 -0.06973078 -0.025226858 0.123628035 -0.030344022 -0.060048953
-0.10573843 -0.025151532 -0.0105109215 0.036072142 0.11805453 0.062011622 -0.053892277 0.049522247
0.12765868 0.05834717 -0.0075212163 -0.09462771 0.009433499 -0.049435444 0.037546873 0.08486154
-0.016604781 0.00927821 0.029150365 0.032659 0.009024465 -0.029977422 -0.018051572 0.011218468
0.064767666 -0.012946592 0.015087504 -0.1225138 -0.020155761 -0.10959419 -0.09651039 0.06737894
0.036392353 0.110878795 0.09445995 -0.07546911 0.00077753566 -0.08224018 -0.14009851 -0.1329458
-0.024824727 0.08547412 0.06474604 0.11494197 0.082138106 0.13720661 0.046385508 0.040084884
0.04994607 -0.08633994 -0.01546815 -0.05745416 -0.029066049 -0.05155136 -0.08134952 -0.089837
-0.0029087814 -0.06386303 0.00055276 0.05053615 0.035569508 -0.0057925954 -0.0516356 -0.022431746
-0.056087773 0.08766994 0.0997957 0.032922123 0.15117995 0.11325789 -0.019983524 -0.14005245
-0.09843243 -0.010203651 -0.14003293 -0.08904053 0.027064763 0.12841243 0.018807033 0.12888613
0.18651338 0.08876703 0.03571751 0.04288552 0.01968995 -0.0894636 -0.034525916 -0.005980554
-0.042115804 0.027187403 0.06119051 0.021569373 0.027274901 0.040857874 -0.07087622 -0.04664291
-0.049173806 0.050089728 -0.07801801 -0.054730088 0.049515482 0.03428231 -0.086253524 0.03353569
-0.020573987 0.0104386015 -0.01380307 -0.06720949 -0.038184732 -0.0032794583 -0.029694756 -0.032544628
-0.1006365 -0.05671129 0.10041364 0.154813 -0.05830595 -0.043406934 0.032663647 -0.12287535
-0.067882314 -0.030760964 -0.16783163 -0.0918294 -0.08210955 -0.060934387 0.09920653 0.028663855
0.0626522 0.08933953 0.07299772 0.11241867 0.11715688 0.042056944 0.029632399 -0.08819282
0.030453231 0.051066138 -0.11017152 -0.053165536 0.045682576 0.10802663 0.14803492 -0.044560254
-0.031210328 -0.036211435 -0.1334264 -0.00046487 0.040731102 -0.06769269 0.16016307 -0.11577594
0.009063964 0.071469076 -0.07945613 0.07210068 0.062054604 -0.070270784 0.08501577 0.065824
-0.09276891 -0.049405962 0.0011723384 -0.09579073 -0.080759086 -0.122702785 0.029654551 -0.0074913055
0.025741994 0.111220166 0.032813426 -0.10624102 0.02583276 -0.031022169 -0.041916564 0.090831116
-0.053720523 -0.022885935 0.10812425 0.08569367 0.039925512 0.075129986 0.030511046 -0.14894328
0.03655452 -0.007000305 -0.103862196 -0.040361166 0.045262314 0.15644568 -0.0824808 0.17320316
0.0966302 0.0800337 0.15261188 0.1034935 -0.06906422 -0.062602505 -0.046400353 -0.0043741697
00000000: 9e5e 10bd 6a70 953d 3bf1 7ebd 60a8 c23c
00000010: 1403 9dbd ed17 35bd fa52 1fbd ed23 22bb
00000020: 9e88 26bb 65a2 2bbd cb3c 34bd d99a 77bd
00000030: ddb2 81bd f284 60bd 279f a33d 84b1 52bd
00000040: a100 9dbd c5ce 7f3d cd8f 9cbc 6858 dfbc
00000050: 57be 0ebe 5efd 10be 6c60 a2bd 0997 ccbd
00000060: d857 713c c8af 613d 3822 59bc e63b b6bd
00000070: f08f 1cbd 06fd f2bd dbe3 98bd d1d4 a6bd
00000080: 8c7c c1bd 9c68 983d 15cb 3e3d 9ee3 043d
00000090: fe73 c93d 3c87 2d3e 7a37 eb3d c306 6dbc
000000a0: a270 c63d 2b45 6e3d 86a8 033d f033 51bd
000000b0: 4d23 433d fb15 e9bc 0c9c 593d 8edb 1cbd
000000c0: 87ad 753d 5369 8ebc 2f12 b03c 03cf 8ebd
000000d0: 8ea8 cebc b230 fd3d 0794 f8bc e4f5 75bd
000000e0: 648d d8bd 960a cebc 0036 2cbc 62c0 133d
000000f0: 93c6 f13d e6ff 7d3d 26be 5cbd d7d7 4a3d
00000100: f5b8 023e 71fd 6e3d 8974 f6bb 2ccc c1bd
00000110: f68e 1a3c d27c 4abd c0ca 193d e3cb ad3d
00000120: c006 88bc a203 183c bfcc ee3c 72c5 053d
00000130: 5adb 133c 3693 f5bc e4e0 93bc aacd 373c
00000140: e9a4 843d f11d 54bc 9431 773c 84e8 fabd
00000150: b21d a5bc eb72 e0bd 3da7 c5bd f8fd 893d
00000160: 2610 153d 6c14 e33d 3874 c13d 8c8f 9abd
00000170: 89d3 4b3a 8a6d a8bd fc75 0fbe f222 08be
00000180: 3a5d cbbc 0e0d af3d 9299 843d b266 eb3d
00000190: 0638 a83d e47f 0c3e bbfe 3d3d 0c30 243d
000001a0: 4094 4c3d ffd2 b0bd 206e 7dbc 0e55 6bbd
000001b0: ec1b eebc 8527 53bd 949a a6bd 76fc b7bd
000001c0: 41a1 3ebb 9fca 82bd 18e7 103a fefe 4e3d
000001d0: 55b1 113d d0cf bdbb da7f 53bd c8c2 b7bc
000001e0: 4bbc 65bd 4c8c b33d b061 cc3d 59d9 063d
000001f0: ebce 1a3e c1f3 e73d 7db4 a3bc e969 0fbe
00000200: f196 c9bd 372d 27bc cb64 0fbe e25a b6bd
00000210: ecb6 dd3c 8c7e 033e 3511 9a3c bafa 033e
00000220: 5dfd 3e3e 7dcb b53d 864c 123d baa8 2f3d
00000230: d14c a13c b138 b7bd 0c6b 0dbd 86f8 c3bb
00000240: 9f81 2cbd 1eb8 de3c e6a2 7a3d 41b2 b03c
00000250: 9d6f df3c 965a 273d 8d27 91bd a30c 3fbd
00000260: 796a 49bd e32a 4d3d e8c7 9fbd a82c 60bd
00000270: bfd0 4a3d 9c6b 0c3d b0a5 b0bd b85c 093d
00000280: c78a a8bc ab06 2b3c 4626 62bc 21a5 89bd
00000290: 9867 1cbd 2eec 56bb 6b42 f3bc 844d 05bd
000002a0: 821a cebd 194a 68bd aba5 cd3d 4d87 1e3e
000002b0: 38d2 6ebd 78cb 31bd 51ca 053d 12a6 fbbd
000002c0: e205 8bbd 6bfe fbbc 0edc 2bbe 0d11 bcbd
000002d0: 0d29 a8bd 5696 79bd cb2c cb3d 76d0 ea3c
000002e0: cc4f 803d a5f7 b63d d47f 953d c23b e63d
000002f0: f2ef ef3d e743 2c3d a5bf f23c 709e b4bd
00000300: 0e79 f93c ba2a 513d 9ba1 e1bd 1bc4 59bd
00000310: a71d 3b3d 113d dd3d 7796 173e d084 36bd
00000320: cdac ffbc 7152 14bd eea0 08be ccb9 f3b9
00000330: a8d5 263d 77a2 8abd ca01 243e f01b edbd
00000340: 0581 143c 615e 923d e5b9 a2bd 85a9 933d
00000350: f82c 7e3d 21ea 8fbd bf1c ae3d bcce 863d
00000360: a0fd bdbd e85d 4abd 26a9 993a ee2d c4bd
00000370: 0565 a5bd 994b fbbd 1aee f23c a079 f5bb
00000380: e0e0 d23c 66c7 e33d 5f67 063d e494 d9bd
00000390: 399f d33c 3422 febc b4b0 2bbd aa05 ba3d
000003a0: 0d0a 5cbd 497b bbbc 3f70 dd3d 2a80 af3d
000003b0: ef88 233d c0dd 993d 4df2 f93c 9684 18be
000003c0: 31ba 153d d162 e5bb b4b5 d4bd c051 25bd
000003d0: fa64 393d 4c33 203e b2eb a8bd 2b5c 313e
000003e0: 0ee6 c53d b5e8 a33d 4a46 1c3e 66f4 d33d
000003f0: 8b71 8dbd be35 80bd 4c0e 3ebd 3255 8fbb

conv3.bias f4 [32]
-0.088207655 -0.054731324 -0.054311216 -0.029184666 0.049775492 0.00978946 -0.13668717 0.042334687
0.07308135 -0.0010223788 -0.011806029 -0.021792497 -0.00027640758 0.013183618 0.076377824 0.08599827
0.079400174 0.010532398 0.0038215644 0.11406006 0.043349646 0.07897917 0.03317473 -0.031320218
0.004623684 -0.04390863 -0.054849222 0.048828453 -0.016568763 0.01470361 -0.069968835 -0.14891256
00000000: 37a6 b4bd f42d 60bd 7075 5ebd ae14 efbc
00000010: 63e1 4b3d f963 203c b9f7 0bbe 2367 2d3d
00000020: adab 953d 5701 86ba 136e 41bc 2e86 b2bc
00000030: ccea 90b9 1a00 583c fa6b 9c3d dc1f b03d
00000040: 8f9c a23d 1490 2c3c 3673 7a3b 5298 e93d
00000050: 668f 313d d5bf a13d 3ae2 073d a149 00bd
00000060: 4682 973b 89d9 33bd 94a9 60bd 5800 483d
00000070: 37bb 87bc 69e7 703c d24b 8fbd 897c 18be

fc1.weight f4 [128, 512]
-0.09067163 0.032137003 -0.07917846 -0.06394441 0.0712478 0.066935666 0.015612798 -0.06637425
-0.029097404 -0.049472906 0.055564735 0.053097304 -0.03822389 -0.08169316 0.01129075 0.06437107
0.04421452 -0.047016807 -0.0022495263 0.016160522 -0.011023807 -0.03461712 -0.031899247 -0.023070807
-0.092940226 0.008043387 0.046632815 0.06272868 -0.0064794947 0.026737597 0.07926531 -0.024383798
0.025283247 -0.004075669 0.015043495 0.0024251891 -0.018397475 0.014014481 -0.023345495 0.0060020597
-0.041873787 -0.015744062 0.024335725 0.024782794 0.0058892495 0.02803145 0.017781343 0.05181271
-0.035143074 -0.034480534 0.025092939 -0.021434722 0.056914296 0.08795379 0.02115659 0.022241753
-0.02795286 -0.02528679 0.026480429 -0.04516097 -0.07468184 -0.07723954 -0.0415333 0.056405786
-0.006634249 0.017978828 -0.020785194 -0.04495664 0.038605656 -0.019570448 0.0027776433 -0.037878893
0.00894339 0.005501666 -0.061750904 0.039794594 -0.0029025925 -0.08931478 -0.02606467 0.027872637
0.0029594833 -0.028902216 -0.009125171 -0.049781773 0.0029541764 0.077126205 0.033774506 -0.069595955
-0.05413533 -0.028940706 0.044003047 0.06470598 -0.11006319 -0.06847285 0.072492525 0.018680302
0.03967576 -0.07733101 0.0050072907 0.0012542786 0.01866534 0.03828252 -0.068787076 -0.028166542
0.013185711 0.10136447 -0.08183232 0.017879097 0.0127839325 -0.0121691795 -0.050182495 0.041822433
0.049720198 0.06964909 -0.032420006 -0.0041611395 -0.0330425 0.0013596973 0.020390755 0.056921247
0.034429304 -0.0072473586 0.06084029 0.07145924 -0.0132257715 -0.073298484 -0.046293914 -0.03191002
-0.020385196 -0.005298789 -0.032053772 -0.06606222 -0.0375468 0.022003992 -0.014783674 0.028486406
-0.034836996 0.0044801473 -0.008948305 -0.018358506 0.0017692012 -0.034427896 -2.0430061e-05 -0.033613496
-0.055962767 -0.025438307 -0.054748096 0.011976904 -0.023346318 0.09155201 -0.012591865 -0.053648315
-0.040440485 0.019212913 0.029796371 -0.054992374 -0.0651473 -0.028410722 0.05365258 -0.04277096
0.0070059975 0.01386794 -0.025133613 -0.034893036 0.022007203 -0.021619707 0.0053952225 0.040019926
0.018798105 0.025465885 0.043444835 -0.018815987 0.015379906 0.03652141 -0.02952833 0.01372672
0.0119605735 -0.0063349693 -0.03917435 0.026044507 -0.052742634 0.07866765 0.08706466 0.04005603
-0.11067229 0.10236847 0.10931163 0.097719 -0.06788417 -0.010496916 0.058450777 0.009069368
-0.06368743 -0.04534313 -0.021713762 -0.04975251 0.043437757 0.01658756 0.053850155 -0.015994575
-0.041301146 0.016385728 0.02469514 0.007944926 -0.05941433 0.04550934 -0.023172447 0.021578657
0.063833915 0.0010237802 -0.0283875 -0.02128035 0.036392815 0.054556157 -0.054519217 0.023906443
-0.099332914 -0.0067192325 0.06586001 -0.050814398 -0.052423436 -0.037141427 0.036848843 -0.03470531
-0.000998904 -0.02878757 0.014326041 -0.055676036 0.011101386 0.02838945 0.026715258 0.002338651
-0.0059985234 0.018418264 0.007857487 0.03733242 -0.010796264 -0.023430632 0.091134645 0.023319067
0.06338578 0.05507123 0.0073546357 -0.051070545 0.034457725 -0.0364253 -0.03017451 0.014458149
-0.019030178 -0.036270976 0.02507332 0.077240564 -0.013766861 -0.021592434 0.012124523 0.07456426
00000000: 0cb2 b9bd 17a2 033d 5128 a2bd 49f5 82bd
00000010: 5eea 913d 9115 893d d2cc 7f3c 39ef 87bd
00000020: ae5d eebc 1aa4 4abd d997 633d 8f7c 593d
00000030: a790 1cbd be4e a7bd d6fc 383c fbd4 833d
00000040: 491a 353d b294 40bd ca6c 13bb 1263 843c
00000050: 339d 34bc aeca 0dbd c9a8 02bd fdfe bcbc
00000060: 7257 bebd 69c8 033c 0d02 3f3d e577 803d
00000070: f151 d4bb ce08 db3c da55 a23d 88c0 c7bc
00000080: d01e cf3c 318d 85bb fe78 763c ecef 1e3b
00000090: 4db6 96bc fe9c 653c 0d3f bfbc edac c43b
000000a0: d983 2bbd b1f9 80bc b75b c73c 4905 cb3c
000000b0: 9bfa c03b 36a2 e53c 2eaa 913c 9039 543d
000000c0: 2ff2 0fbd 763b 0dbd b58f cd3c df97 afbc
000000d0: f71e 693d 1e21 b43d 9650 ad3c 5634 b63c
000000e0: 65fd e4bc 3e26 cfbc 7ced d83c b6fa 38bd
000000f0: cbf2 98bd c42f 9ebd d21e 2abd c109 673d
00000100: 1d64 d9bb 5648 933c b645 aabc 7424 38bd
00000110: f720 1e3d 3452 a0bc 1f09 363b e626 1bbd
00000120: 4c87 123c 5247 b43b 84ee 7cbd a8ff 223d
00000130: 6c39 3ebb abea b6bd 9385 d5bc 2855 e43c
00000140: e4f3 413b 57c4 ecbc be81 15bc f9e7 4bbd
00000150: db9a 413b 58f4 9d3d 2357 0a3d 5388 8ebd
00000160: 02bd 5dbd 0f15 edbc 8a3c 343d 9284 843d
00000170: cf68 e1bd 7e3b 8cbd f676 943d 6f07 993c
00000180: 0d83 223d b85f 9ebd 3314 a43b 9b66 a43a
00000190: 0ee8 983c 22ce 1c3d 3de0 8cbd 85bd e6bc
000001a0: e108 583c 2d98 cf3d b497 a7bd 2f77 923c
000001b0: b373 513c 3d61 47bc 298c 4dbd 004e 2b3d
000001c0: 68a7 4b3d 2fa4 8e3d d7ca 04bd 2b5a 88bb
000001d0: 9357 07bd df37 b23a 830a a73c 4126 693d
000001e0: be05 0d3d 407b edbb ab33 793d 3959 923d
000001f0: e8b0 58bc 841d 96bd b09e 3dbd 15b4 02bd
00000200: dbfe a6bc 77a1 adbb d14a 03bd a14b 87bd
00000210: acca 19bd b741 b43c 3937 72bc 535c e93c
00000220: 3db1 0ebd 33ce 923b e99b 12bc 9464 96bc
00000230: 8be4 e73a 4404 0dbd 3961 abb7 4eae 09bd
00000240: 3739 65bd ff63 d0bc 8a3f 60bd c73a 443c
00000250: c740 bfbc 9f7f bb3d 1c4e 4ebc 56be 5bbd
00000260: eca4 25bd 6664 9d3c 8517 f43c af3f 61bd
00000270: f36b 85bd 9abd e8bc cfc2 5b3d 9a30 2fbd
00000280: 9192 e53b 5b36 633c 02e5 cdbc 00ec 0ebd
00000290: 7348 b43c d01b b1bc 68ca b03b efeb 233d
000002a0: 7cfe 993c d59d d03c 36f3 313d fc23 9abc
000002b0: 00fc 7b3c 7997 153d 65e5 f1bc 09e6 603c
000002c0: 48f6 433c 9395 cfbb 4975 20bd 4a5b d53c
000002d0: a908 58bd 811c a13d f54e b23d cb11 243d
000002e0: 27a8 e2bd 8fa6 d13d c7de df3d e620 c83d
000002f0: db06 8bbd 42fb 2bbc 156a 6f3d b097 143c
00000300: 8e6e 82bd b8b9 39bd 0fe1 b1bc 4ac9 4bbd
00000310: caeb 313d a2e2 873c fb91 5c3d 0e07 83bc
00000320: 642b 29bd 5d3b 863c 764d ca3c 6f2b 023c
00000330: 715c 73bd 0068 3a3d 25d4 bdbc b9c5 b03c
00000340: 5bbb 823d 5d30 863a e78c e8bc 2154 aebc
00000350: a210 153d 4776 5f3d 8b4f 5fbd 72d7 c33c
00000360: 0e6f cbbd 022d dcbb 9de1 863d c222 50bd
00000370: f5b9 56bd 9c21 18bd d0ee 163d 2827 0ebd
00000380: a8ed 82ba e9d3 ebbc c5b7 6a3c 8e0c 64bd
00000390: 96e2 353c fe90 e83c f5d9 da3c 0e44 193b
000003a0: 438f c4bb e6e1 963c b0bc 003c e1e9 183d
000003b0: d0e2 30bc 99f1 bfbc cda4 ba3d a107 bf3c
000003c0: 67d0 813d 5f92 613d 28ff f03b 592f 51bd
000003d0: 8b23 0d3d b232 15bd 8930 f7bc dfe1 6c3c
000003e0: 2de5 9bbc e090 14bd 9066 cd3c 4d30 9e3d
000003f0: 668e 61bc 9ee2 b0bc efa5 463c 26b5 983d

fc1.bias f4 [128]
-0.052774075 0.011501516 0.0065059722 -0.0144104 0.05117708 0.0025978328 -0.022560516 -0.025230952
-0.039488066 0.07341131 -0.0010317499 0.051611837 0.0073502823 0.04054637 0.020385781 -0.011321098
0.012378114 -0.04128164 0.013536417 -0.015916731 0.021182556 0.03366633 -0.09073288 -0.052202914
-0.05799424 0.011263282 -0.058544535 0.026097005 -0.027720282 -0.039766744 -0.010989329 -0.03741158
-0.013303074 -0.027481254 0.03366205 -0.007978588 0.08326908 0.028965458 0.033067774 -0.027506722
-0.03613226 0.030790342 -0.005850505 0.09297963 0.021557974 0.05978467 -0.017544482 0.022583434
0.005943775 -0.014263931 0.044599347 0.07281977 -0.029710153 -0.03340944 0.0681095 0.025287153
0.043246027 0.013475243 0.0520014 0.007908783 0.056530528 0.018510848 0.021196958 0.003267425
-0.029893091 -0.01734824 0.018215792 0.07375357 0.01328816 -0.024922173 0.027679384 0.11895226
0.013123771 0.017541563 -0.0408341 -0.07202318 -0.013816348 0.023888886 -0.048869304 0.00766261
0.0006276379 -0.022631174 -0.02306335 0.101521686 0.067899205 -0.046058476 -0.0050107487 -0.006081873
0.016782805 -0.015601961 0.05030851 -0.058680415 0.047635272 -0.0039087255 -0.019300822 0.015433096
-0.09579528 0.045572307 0.014427215 -0.013158696 -0.017658057 0.10063344 0.028367639 -0.060458332
-0.03589932 0.02911146 -0.0327793 0.028310524 -0.022546582 -0.00077783625 0.033366784 0.099639505
-0.020782825 -0.015889278 0.0112133 0.0013322185 -0.004223818 -0.019532762 0.11004815 0.049549997
0.023561077 0.06353311 0.010186301 0.009624927 0.0194986 0.058821384 0.0047533307 -0.01860348
00000000: a129 58bd db70 3c3c 0d30 d53b 9919 6cbc
00000010: 0f9f 513d 6740 2a3b d5d0 b8bc 24b1 cebc
00000020: 3dbe 21bd ab58 963d c83b 87ba ef66 533d
00000030: a3da f03b f313 263d 1500 a73c 207c 39bc
00000040: 93cd 4a3c f016 29bd d9c7 5d3c ce63 82bc
00000050: 0a87 ad3c b5e5 093d 29d2 b9bd b9d2 55bd
00000060: 5e8b 6dbd a189 383c 65cc 6fbd 63c9 d53c
00000070: a515 e3bc 74e2 22bd 960c 34bc e33c 19bd
00000080: 23f5 59bc 5e20 e1bc 38e1 093d a0b8 02bc
00000090: fb88 aa3d f848 ed3c 1372 073d c755 e1bc
000000a0: 6cff 13bd 073c fc3c 98b5 bfbb 1b6c be3d
000000b0: 599a b03c c5e0 743d 72b9 8fbc e500 b93c
000000c0: 00c4 c23b 43b3 69bc cead 363d 8822 953d
000000d0: b562 f3bc 56d8 08bd fe7c 8b3d 0127 cf3c
000000e0: bf22 313d 44c7 5c3c 6cff 543d d793 013c
000000f0: 8e8c 673d 10a4 973c 3ea5 ad3c 4c22 563b
00000100: 5be2 f4bc e51d 8ebc 4939 953c 1d0c 973d
00000110: 95b6 593c 9629 ccbc e0bf e23c 3e9d f33d
00000120: 1605 573c 53b3 8f3c a841 27bd e480 93bd
00000130: f75d 62bc a0b2 c33c 2e2b 48bd a216 fb3b
00000140: 1188 243a 0365 b9bc 5aef bcbc 9aea cf3d
00000150: bd0e 8b3d d0a7 3cbd 3531 a4bb 734a c7bb
00000160: 187c 893c 5e9f 7fbc 4c10 4e3d e05a 70bd
00000170: 341d 433d c414 80bb c21c 9ebc 19db 7c3c
00000180: 5130 c4bd 07aa 3a3d 2060 6c3c 9297 57bc
00000190: a1a7 90bc e818 ce3d 4063 e83c 28a3 77bd
000001a0: 2a0b 13bd 287b ee3c 9643 06bd 79eb e73c
000001b0: 9cb3 b8bc b5e7 4bba 9cab 083d cc0f cc3d
000001c0: be40 aabc 3b2a 82bc fdb7 373c d69d ae3a
000001d0: f467 8abb 2c03 a0bc ed60 e13d f0f4 4a3d
000001e0: 2903 c13c a61d 823d 71e4 263c dfb1 1d3c
000001f0: 87bb 9f3c b1ee 703d d4c1 9b3b 5366 98bc

fc2.weight f4 [7, 128]
-0.120784745 -0.11656755 0.07235306 -0.07344743 -0.06484056 -0.06075025 -0.0023306883 -0.19115835
-0.057458404 0.10790414 -0.21926494 0.010009274 0.007690921 0.042722933 0.0633419 0.0006133965
-0.06795975 -0.081292145 -0.18144022 0.12836777 -0.0093025 0.085927546 -0.21726769 -0.021042887
-0.0933131 0.08595154 -0.21149653 0.046707764 -0.025839565 -0.33481756 -0.23927014 -0.19090675
-0.040914457 -0.16163413 0.06353475 0.015764097 0.06788066 -0.0775626 -0.1435965 -0.033048455
-0.0849284 -0.05259817 -0.16358535 0.27521658 0.13636158 0.16006814 -0.02575284 -0.15157235
0.1935199 0.07071594 0.13844645 -0.011388918 -0.09492725 -0.17866604 0.037709247 -0.02642586
-0.13803034 -0.10174654 -0.15509291 -0.072689705 -0.117331445 0.1555047 0.02385145 0.1715634
0.021048347 -0.22540821 0.044429753 0.31725585 0.1273964 0.026076816 0.080002636 0.28592476
-0.08411153 -0.08110896 -0.22280398 -0.27986315 0.044307936 -0.09481158 -0.20999213 -0.0058308262
-0.034341093 0.06940657 -0.1377785 0.05499895 0.0018451116 -0.24860612 -0.025709929 -0.01222889
-0.18780124 -0.08125804 -0.25839582 -0.12688988 -0.032294825 -0.06923145 -0.18746935 -0.13686576
-0.20344642 0.114441186 -0.064868055 -0.1433497 -0.038105115 0.15797022 -0.11690867 -0.07432675
-0.045805287 -0.029844759 -0.0097805895 0.108573176 -0.3511095 0.04798856 0.1978285 0.22609393
-0.06581693 -0.03725357 0.08277274 -0.05562964 -0.0029359923 -0.19742113 0.19765717 0.11254845
-0.108897515 0.22020288 -0.15772471 -0.1180426 -0.12916231 0.17102928 -0.0987001 0.042625394
-0.049514875 -0.12403754 0.046995245 -0.07412611 0.085741825 -0.08153979 -0.037976936 0.02811514
-0.17107002 -0.011999944 -0.24143723 0.15653244 -0.160761 0.1615271 -0.05460264 0.14272077
-0.0856963 0.14365062 -0.002972105 0.09395581 0.011300624 -0.2530272 0.078198835 0.05967039
0.0282409 0.017349778 -0.10806883 -0.27563426 0.11674596 0.031267207 0.1207819 -0.2941895
-0.054838672 0.021512534 0.040659342 -0.040347807 -0.28887096 0.12819932 0.1776408 -0.06407444
-0.13653694 -0.16968055 0.15999782 -0.14214946 0.026915232 -0.20577666 -0.1119316 -0.10459488
-0.09022732 0.044772293 -0.09392174 0.038187806 -0.30111942 0.10005039 0.09263902 -0.23758012
-0.055685803 0.027722001 -0.29361537 -0.029144706 -0.36991775 -0.2497545 0.049566593 -0.12105163
-0.038107146 -0.018166812 0.08207069 -0.01782407 -0.26285854 0.092478685 0.014142087 -0.16813017
-0.05079368 0.10973235 0.09608894 0.15536158 -0.048713166 0.13335255 -0.12505989 0.09523715
-0.030573795 0.0052873595 -0.33671874 -0.18677254 0.094785966 -0.27833277 -0.057858314 -0.053534016
0.040742517 0.21949068 -0.20234689 -0.16412744 -0.23143935 0.16611879 -0.16532388 -0.020004855
0.06551163 -0.1088416 0.04399065 -0.079418205 -0.13946705 -0.108722225 -0.0015266413 0.015171194
0.24140817 -0.0014215352 -0.055057563 0.11396139 -0.22373165 -0.08844818 -0.11287037 -0.13546322
-0.021294625 -0.0322945 0.023547597 0.0011835259 -0.1292562 0.08162737 -0.12745382 -0.079998605
-0.12245686 0.071002394 -0.30599055 0.13076483 0.19489011 -0.21150313 -0.09189221 0.0985256
00000000: fe5d f7bd f8ba eebd d72d 943d 9b6b 96bd
00000010: 21cb 84bd 41d5 78bd 76be 18bb 04bf 43be
00000020: 8159 6bbd d9fc dc3d fd86 60be f0fd 233c
00000030: 1f04 fc3b 3efe 2e3d 66b9 813d 58cc 203a
00000040: 7b2e 8bbd 7f7c a6bd 77cb 39be d772 033e
00000050: 8369 18bc c8fa af3d 6c7b 5ebe 2262 acbc
00000060: f01a bfbd 5c07 b03d 8c92 58be a450 3f3d
00000070: 7fad d3bc 356d abbe 3b03 75be 0f7d 43be
00000080: eb95 27bd 6b83 25be 821e 823d b523 813c
00000090: 0405 8b3d 24d9 9ebd f60a 13be d15d 07bd
000000a0: f1ee adbd 2e71 57bd eb82 27be 30e9 8c3e
000000b0: 5fa2 0b3e e7e8 233e 9ff7 d2bc c835 1bbe
000000c0: 152a 463e 85d3 903d e8c4 0d3e 9698 3abc
000000d0: 3869 c2bd 3bf4 36be 0375 1a3d 0c7b d8bc
000000e0: d357 0dbe 7d60 d0bd add0 1ebe 57de 94bd
000000f0: 784b f0bd a03c 1f3e 1e64 c33c 51ae 2f3e
00000100: 956d ac3c 69d1 66be f9fb 353d 5c6f a23e
00000110: 3474 023e 0c9f d53c 6cd8 a33d bb64 923e
00000120: aa42 acbd 741c a6bd ba26 64be 394a 8fbe
00000130: 3d7c 353d 932c c2bd 2d08 57be 8410 bfbb
00000140: 3fa9 0cbd 0825 8e3d cf15 0dbe 9446 613d
00000150: acd7 f13a 9a92 7ebe a19d d2bc af5b 48bc
00000160: f84e 40be 9e6a a6bd 754c 84be 6cef 01be
00000170: 9447 04bd 38c9 8dbd f7f7 3fbe 8a26 0cbe
00000180: 4254 50be 2460 ea3d 8bd9 84bd 44ca 12be
00000190: 1c14 1cbd f2c2 213e d06d efbd a038 98bd
000001a0: 539e 3bbd ff7c f4bc c43e 20bc 9d5b de3d
000001b0: a0c4 b3be a78f 443d 8e93 4a3e 2b85 673e
000001c0: 07cb 86bd 3397 18bd c184 a93d e8db 63bd
000001d0: c769 40bb c428 4abe a466 4a3e cd7f e63d
000001e0: a905 dfbd dd7c 613e 9682 21be 52c0 f1bd
000001f0: 2043 04be 4d22 2f3e 4723 cabd f797 2e3d
00000200: 1cd0 4abd 6507 febd 167e 403d 6ecf 97bd
00000210: 6999 af3d 55fe a6bd b48d 1bbd b951 e63c
00000220: fb2c 2fbe 6a9b 44bc 523b 77be 0a4a 203e
00000230: 889e 24be 5c67 253e 05a7 5fbd 6525 123e
00000240: 8b81 afbd 2619 133e a6c7 42bb e76b c03d
00000250: 4126 393c c88c 81be b626 a03d f068 743d
00000260: 7659 e73c 1f21 8e3c 3153 ddbd ef1f 8dbe
00000270: 8218 ef3d 0b12 003d 805c f73d 02a0 96be
00000280: 849e 60bd 0e3b b03c 698a 263d be43 25bd
00000290: e5e6 93be af46 033e 78e7 353e 7639 83bd
000002a0: 57d0 0bbe bdc0 2dbe 78d6 233e a18f 11be
000002b0: 557d dc3c 1eb7 52be 653c e5bd d735 d6bd
000002c0: 1ac9 b8bd 2763 373d 0b5a c0bd d16a 1c3d
000002d0: 532c 9abe 38e7 cc3d 87b9 bd3d 3448 73be
000002e0: cc16 64bd 4019 e33c c154 96be e1c0 eebc
000002f0: dc65 bdbe a5bf 7fbe 5706 4b3d ebe9 f7bd
00000300: 3d16 1cbd 91d2 94bc ae14 a83d c903 92bc
00000310: 6595 86be 7765 bd3d 36b4 673c 512a 2cbe
00000320: 090d 50bd 5bbb e03d 47ca c43d 1b17 1f3e
00000330: 7587 47bd 928d 083e b30f 00be b20b c33d
00000340: e575 fabc 9641 ad3b 6666 acbe 4d41 3fbe
00000350: 251f c23d a281 8ebe d7fc 6cbd 7c46 5bbd
00000360: a0e1 263d 2ac2 603e 0634 4fbe 0611 28be
00000370: 70fe 6cbe 0b1b 2a3e aa4a 29be 39e1 a3bc
00000380: f62a 863d 58e8 debd 8a2f 343d 03a6 a2bd
00000390: 73d0 0ebe c2a9 debd 9519 c8ba 9a90 783c
000003a0: b433 773e ce52 baba 0a84 61bd 9764 e93d
000003b0: e919 65be 5224 b5bd 9528 e7bd dfb6 0abe
000003c0: 1172 aebc 3d47 04bd e4e6 c03c 8a20 9b3a
000003d0: bd5b 04be 402c a73d 4183 02be 4fd6 a3bd
000003e0: aaca fabd b469 913d cbaa 9cbe 37e7 053e
000003f0: 4691 473e 4794 58be fc31 bcbd cac7 c93d

fc2.bias f4 [7]
0.0054481295 -0.087072276 0.01195564 -0.044508647 -0.079916224 -0.11533971 -0.054347657
00000000: 3986 b23b f352 b2bd 97e1 433c b34e 36bd
00000010: 1eab a3bd 3a37 ecbd a69b 5ebd
